…
Class names: ['plain spaghetti', 'slice of bread', 'fried egg', 'chopped lettuce', 'glass of milk', 'boiled potatoes', 'boiled peas', 'plain rice', 'meatballs', 'glass of water']
Useable training images in total: 8647
Useable augmented training images in total: 1549
Useable test images in total: 2158
Useable augmented test images in total: 390
Training data errors: 39
Testing data errors: 10

Settings:
NUM_EPOCHS: 2
BATCH_SIZE: 128
DIM: 300
NUM_WORKERS: 0
USE_TRAIN_AUGMENTATION: True
USE_TEST_AUGMENTATION: True
USE_LAZY_IMAGE_LOADING: False
FRACTION_OF_DATA_TO_USE: 1
USE_CUDA: False

Network: 
Net(
  (conv_1): Conv2d(3, 32, kernel_size=(8, 8), stride=(1, 1))
  (maxPool2d_1): MaxPool2d(kernel_size=16, stride=1, padding=0, dilation=1, ceil_mode=False)
  (batchnorm_1): BatchNorm2d(32, eps=1e-05, momentum=0.1, affine=True, track_running_stats=True)
  (relu_conv1): ReLU()
  (conv_2): Conv2d(32, 64, kernel_size=(8, 8), stride=(2, 2))
  (maxPool2d_2): MaxPool2d(kernel_size=16, stride=1, padding=0, dilation=1, ceil_mode=False)
  (batchnorm_2): BatchNorm2d(64, eps=1e-05, momentum=0.1, affine=True, track_running_stats=True)
  (relu_conv2): ReLU()
  (conv_3): Conv2d(64, 128, kernel_size=(8, 8), stride=(2, 2))
  (maxPool2d_3): MaxPool2d(kernel_size=16, stride=1, padding=0, dilation=1, ceil_mode=False)
  (batchnorm_3): BatchNorm2d(128, eps=1e-05, momentum=0.1, affine=True, track_running_stats=True)
  (relu_conv3): ReLU()
  (l_1): Linear(in_features=225792, out_features=2000, bias=True)
  (relu_l_1): ReLU()
  (l_2): Linear(in_features=2000, out_features=500, bias=True)
  (relu_l_2): ReLU()
  (l_out): Linear(in_features=500, out_features=10, bias=True)
)

Test results:
Accuracy of the network on the 2158 test images: 59.00 %(Random guessing would be 10.00 % on average)
    Accuracy of plain spaghetti: 145 of 199 correct = 72.86 %
    Accuracy of slice of bread: 111 of 265 correct = 41.89 %
    Accuracy of fried egg : 153 of 213 correct = 71.83 %
    Accuracy of chopped lettuce: 97 of 199 correct = 48.74 %
…
Class names: ['plain spaghetti', 'slice of bread', 'fried egg', 'chopped lettuce', 'glass of milk', 'boiled potatoes', 'boiled peas', 'plain rice', 'meatballs', 'glass of water']
Useable training images in total: 863
Useable augmented training images in total: 153
Useable test images in total: 201
Useable augmented test images in total: 39
Training data errors: 9
Testing data errors: 0

Settings:
NUM_EPOCHS: 8
BATCH_SIZE: 8
DIM: 300
NUM_WORKERS: 0
USE_TRAIN_AUGMENTATION: True
USE_TEST_AUGMENTATION: True
USE_LAZY_IMAGE_LOADING: False
FRACTION_OF_DATA_TO_USE: 0.1
USE_CUDA: False

Network: 
Net(
  (conv_1): Conv2d(3, 32, kernel_size=(8, 8), stride=(1, 1))
  (maxPool2d_1): MaxPool2d(kernel_size=8, stride=1, padding=0, dilation=1, ceil_mode=False)
  (batchnorm_1): BatchNorm2d(32, eps=1e-05, momentum=0.1, affine=True, track_running_stats=True)
  (relu_conv1): ReLU()
  (conv_2): Conv2d(32, 64, kernel_size=(16, 16), stride=(2, 2))
  (maxPool2d_2): MaxPool2d(kernel_size=8, stride=1, padding=0, dilation=1, ceil_mode=False)
  (batchnorm_2): BatchNorm2d(64, eps=1e-05, momentum=0.1, affine=True, track_running_stats=True)
  (relu_conv2): ReLU()
  (conv_3): Conv2d(64, 128, kernel_size=(16, 16), stride=(4, 4))
  (maxPool2d_3): MaxPool2d(kernel_size=8, stride=1, padding=0, dilation=1, ceil_mode=False)
  (batchnorm_3): BatchNorm2d(128, eps=1e-05, momentum=0.1, affine=True, track_running_stats=True)
  (relu_conv3): ReLU()
  (l_1): Linear(in_features=61952, out_features=2000, bias=True)
  (relu_l_1): ReLU()
  (l_2): Linear(in_features=2000, out_features=500, bias=True)
  (relu_l_2): ReLU()
  (l_out): Linear(in_features=500, out_features=10, bias=True)
)

Test results:
Accuracy of the network on the 201 test images: 40.00 %(Random guessing would be 10.00 % on average)
    Accuracy of plain spaghetti: 9 of 17 correct = 52.94 %
    Accuracy of slice of bread: 9 of 15 correct = 60.00 %
    Accuracy of fried egg : 15 of 20 correct = 75.00 %
    Accuracy of chopped lettuce: 12 of 26 correct = 46.15 %
    Accuracy of glass of milk: 12 of 26 correct = 46.15 %
…
Testing data path: /home/ubuntu/ImageData/SingleLabeledNew/ResizedAndAugmentedFinalData/testing_images
Number of classes: 4
Class names: ['plain spaghetti', 'slice of bread', 'fried egg', 'chopped lettuce']
Useable training images in total: 133
Useable augmented training images in total: 23
Useable test images in total: 42
Useable augmented test images in total: 8
Training data errors: 0
Testing data errors: 0

Settings:
NUM_EPOCHS: 5
BATCH_SIZE: 8
DIM: 300
NUM_WORKERS: 0
USE_TRAIN_AUGMENTATION: True
USE_TEST_AUGMENTATION: True
USE_LAZY_IMAGE_LOADING: False
FRACTION_OF_DATA_TO_USE: 0.04
CLASSES_TO_USE: 4
USE_CUDA: False

Network Summary: 


Network: 
Net(
  (conv_1): Conv2d(3, 32, kernel_size=(3, 3), stride=(2, 2))
  (maxPool2d_1): MaxPool2d(kernel_size=4, stride=2, padding=0, dilation=1, ceil_mode=False)
  (batchnorm_1): BatchNorm2d(32, eps=1e-05, momentum=0.1, affine=True, track_running_stats=True)
  (relu_conv1): ReLU()
  (conv_2): Conv2d(32, 64, kernel_size=(4, 4), stride=(2, 2))
  (maxPool2d_2): MaxPool2d(kernel_size=4, stride=2, padding=0, dilation=1, ceil_mode=False)
  (batchnorm_2): BatchNorm2d(64, eps=1e-05, momentum=0.1, affine=True, track_running_stats=True)
  (relu_conv2): ReLU()
  (conv_3): Conv2d(64, 128, kernel_size=(4, 4), stride=(2, 2))
  (maxPool2d_3): MaxPool2d(kernel_size=2, stride=1, padding=0, dilation=1, ceil_mode=False)
  (batchnorm_3): BatchNorm2d(128, eps=1e-05, momentum=0.1, affine=True, track_running_stats=True)
  (relu_conv3): ReLU()
  (l_1): Linear(in_features=4608, out_features=2000, bias=True)
  (relu_l_1): ReLU()
  (l_2): Linear(in_features=2000, out_features=200, bias=True)
  (relu_l_2): ReLU()
  (l_out): Linear(in_features=200, out_features=4, bias=True)
)

Test results:
Accuracy of the network on the 42 test images: 52.00 %(Random guessing would be 25.00 % on average)
    Accuracy of plain spaghetti: 6 of 7 correct = 85.71 %
    Accuracy of slice of bread: 4 of 13 correct = 30.77 %
    Accuracy of fried egg : 4 of 10 correct = 40.00 %
    Accuracy of chopped lettuce: 7 of 12 correct = 58.33 %

**************************************************
…
Network Summary: 

Conv1 values:
    in channels: 3
    out channels: 32
    kernelsize: 3
    stride: 2
    out height: 149
    out width: 149

Max1 values:
    kernelsize: 4
    padding: 0
    stride: 2

Conv2 values:
    in channels: 32
    out channels: 64
    kernelsize: 4
    stride: 2
    out height: 73
    out width: 73

Max2 values:
    kernelsize: 4
    padding: 0
    stride: 2

Conv3 values:
    in channels: 64
    out channels: 128
    kernelsize: 4
    stride: 2
    out height: 35
    out width: 35

Max3 values:
    kernelsize: 4
    padding: 0
    stride: 2


Network: 
Net(
  (conv_1): Conv2d(3, 32, kernel_size=(3, 3), stride=(2, 2))
  (maxPool2d_1): MaxPool2d(kernel_size=4, stride=2, padding=0, dilation=1, ceil_mode=False)
  (batchnorm_1): BatchNorm2d(32, eps=1e-05, momentum=0.1, affine=True, track_running_stats=True)
  (relu_conv1): ReLU()
  (conv_2): Conv2d(32, 64, kernel_size=(4, 4), stride=(2, 2))
  (maxPool2d_2): MaxPool2d(kernel_size=4, stride=2, padding=0, dilation=1, ceil_mode=False)
  (batchnorm_2): BatchNorm2d(64, eps=1e-05, momentum=0.1, affine=True, track_running_stats=True)
  (relu_conv2): ReLU()
  (conv_3): Conv2d(64, 128, kernel_size=(4, 4), stride=(2, 2))
  (maxPool2d_3): MaxPool2d(kernel_size=4, stride=2, padding=0, dilation=1, ceil_mode=False)
  (batchnorm_3): BatchNorm2d(128, eps=1e-05, momentum=0.1, affine=True, track_running_stats=True)
  (relu_conv3): ReLU()
  (l_1): Linear(in_features=512, out_features=200, bias=True)
  (relu_l_1): ReLU()
  (l_2): Linear(in_features=200, out_features=40, bias=True)
  (relu_l_2): ReLU()
  (l_out): Linear(in_features=40, out_features=4, bias=True)
)

Test results:
Accuracy of the network on the 45 test images: 46.00 %(Random guessing would be 25.00 % on average)
    Accuracy of plain spaghetti: 3 of 9 correct = 33.33 %
    Accuracy of slice of bread: 9 of 16 correct = 56.25 %
    Accuracy of fried egg : 4 of 13 correct = 30.77 %
    Accuracy of chopped lettuce: 5 of 7 correct = 71.43 %

**************************************************
…
Network Summary: 

Conv1 values:
    in channels: 3
    out channels: 64
    kernelsize: 3
    stride: 2
    out height: 149
    out width: 149

Max1 values:
    kernelsize: 2
    padding: 0
    stride: 2

Conv2 values:
    in channels: 64
    out channels: 128
    kernelsize: 4
    stride: 2
    out height: 73
    out width: 73

Max2 values:
    kernelsize: 2
    padding: 0
    stride: 2

Conv3 values:
    in channels: 128
    out channels: 512
    kernelsize: 4
    stride: 2
    out height: 35
    out width: 35

Max3 values:
    kernelsize: 2
    padding: 0
    stride: 2


Network: 
Net(
  (conv_1): Conv2d(3, 64, kernel_size=(3, 3), stride=(2, 2))
  (maxPool2d_1): MaxPool2d(kernel_size=2, stride=2, padding=0, dilation=1, ceil_mode=False)
  (batchnorm_1): BatchNorm2d(64, eps=1e-05, momentum=0.1, affine=True, track_running_stats=True)
  (relu_conv1): ReLU()
  (conv_2): Conv2d(64, 128, kernel_size=(4, 4), stride=(2, 2))
  (maxPool2d_2): MaxPool2d(kernel_size=2, stride=2, padding=0, dilation=1, ceil_mode=False)
  (batchnorm_2): BatchNorm2d(128, eps=1e-05, momentum=0.1, affine=True, track_running_stats=True)
  (relu_conv2): ReLU()
  (conv_3): Conv2d(128, 512, kernel_size=(4, 4), stride=(2, 2))
  (maxPool2d_3): MaxPool2d(kernel_size=2, stride=2, padding=0, dilation=1, ceil_mode=False)
  (batchnorm_3): BatchNorm2d(512, eps=1e-05, momentum=0.1, affine=True, track_running_stats=True)
  (relu_conv3): ReLU()
  (l_1): Linear(in_features=8192, out_features=2000, bias=True)
  (relu_l_1): ReLU()
  (l_2): Linear(in_features=2000, out_features=200, bias=True)
  (relu_l_2): ReLU()
  (l_out): Linear(in_features=200, out_features=4, bias=True)
)

Test results:
Accuracy of the network on the 348 test images: 72.00 %(Random guessing would be 25.00 % on average)
    Accuracy of plain spaghetti: 56 of 78 correct = 71.79 %
    Accuracy of slice of bread: 71 of 100 correct = 71.00 %
    Accuracy of fried egg : 60 of 86 correct = 69.77 %
    Accuracy of chopped lettuce: 66 of 84 correct = 78.57 %

**************************************************
…
Network Summary: 

Conv1 values:
    in channels: 3
    out channels: 64
    kernelsize: 3
    stride: 2
    out height: 149
    out width: 149

Max1 values:
    kernelsize: 2
    padding: 0
    stride: 2

Conv2 values:
    in channels: 64
    out channels: 128
    kernelsize: 4
    stride: 2
    out height: 73
    out width: 73

Max2 values:
    kernelsize: 2
    padding: 0
    stride: 2

Conv3 values:
    in channels: 128
    out channels: 512
    kernelsize: 4
    stride: 2
    out height: 35
    out width: 35

Max3 values:
    kernelsize: 2
    padding: 0
    stride: 2


Network: 
Net(
  (conv_1): Conv2d(3, 64, kernel_size=(3, 3), stride=(2, 2))
  (maxPool2d_1): MaxPool2d(kernel_size=2, stride=2, padding=0, dilation=1, ceil_mode=False)
  (batchnorm_1): BatchNorm2d(64, eps=1e-05, momentum=0.1, affine=True, track_running_stats=True)
  (relu_conv1): ReLU()
  (conv_2): Conv2d(64, 128, kernel_size=(4, 4), stride=(2, 2))
  (maxPool2d_2): MaxPool2d(kernel_size=2, stride=2, padding=0, dilation=1, ceil_mode=False)
  (batchnorm_2): BatchNorm2d(128, eps=1e-05, momentum=0.1, affine=True, track_running_stats=True)
  (relu_conv2): ReLU()
  (conv_3): Conv2d(128, 512, kernel_size=(4, 4), stride=(2, 2))
  (maxPool2d_3): MaxPool2d(kernel_size=2, stride=2, padding=0, dilation=1, ceil_mode=False)
  (batchnorm_3): BatchNorm2d(512, eps=1e-05, momentum=0.1, affine=True, track_running_stats=True)
  (relu_conv3): ReLU()
  (l_1): Linear(in_features=8192, out_features=2000, bias=True)
  (relu_l_1): ReLU()
  (l_2): Linear(in_features=2000, out_features=200, bias=True)
  (relu_l_2): ReLU()
  (l_out): Linear(in_features=200, out_features=10, bias=True)
)

Test results:
Accuracy of the network on the 849 test images: 53.00 %(Random guessing would be 10.00 % on average)
    Accuracy of plain spaghetti: 32 of 71 correct = 45.07 %
    Accuracy of slice of bread: 54 of 111 correct = 48.65 %
    Accuracy of fried egg : 58 of 90 correct = 64.44 %
    Accuracy of chopped lettuce: 47 of 80 correct = 58.75 %
    Accuracy of glass of milk: 41 of 77 correct = 53.25 %
…
